models/dqn.pt (torch, 80598 bytes, 14 tensors)

0.weight f4 [128, 2]
0	0x3d987ef0	0.074460864
1	0xbde002c0	-0.109380245
2	0xbcb48f70	-0.022041053
3	0xbe1000cb	-0.14062802
4	0x3d14e35a	0.03634963
5	0x3d14b7f5	0.036308248
6	0x3d187524	0.03722109
7	0xbda5bad5	-0.08092276
8	0xbe162d0d	-0.14665623
9	0x3d7cc89b	0.06171475
10	0x3f277b9f	0.65423006
11	0x404ab466	3.1672606
12	0xc00605bd	-2.0941002
13	0x3f4a0149	0.7890821
14	0xbc9f1d48	-0.019423142
15	0xbed697c8	-0.41912675
16	0xbb971235	-0.0046103247
17	0xbdb31fb1	-0.08746279
18	0x3e4c57fd	0.1995544
19	0x3ddd47fa	0.10804744
20	0x403cf9d9	2.9527495
21	0x3fa50c92	1.2894461
22	0xbbc80330	-0.0061038956
23	0xbea4834a	-0.32131416
24	0xbe75d31a	-0.2400631
25	0x3e96dc2e	0.2946486
26	0xbeff1524	-0.49820817
27	0x3dc21b45	0.094778575
28	0xbe823a37	-0.2543504
29	0xbeb4d9ad	-0.35322323
30	0xbd3de740	-0.046363115
31	0xbccb985e	-0.024852928
32	0x3e9cbb0b	0.30611452
33	0x3d5461fe	0.051851265
34	0xbe38e8a6	-0.18057498
35	0x3c5faa4c	0.013651442
36	0x3de741c3	0.1129184
37	0xbcae1f6a	-0.021255214
38	0xbdc7c0a6	-0.09753542
39	0x3f4cb7b2	0.79967797
40	0x3b881429	0.004152794
41	0x3e2c102e	0.16803047
42	0x3dff6050	0.12469542
43	0xbe877305	-0.2645494
44	0x3db713ee	0.08939348
45	0x3e97f5a6	0.29679602
46	0x3f88a4a3	1.0675243
47	0x401e179b	2.4701908
48	0x3dc00336	0.093756124
49	0xbed08297	-0.40724632
50	0xbd1a1efb	-0.0376272
51	0xbe525cd6	-0.20543227
52	0x3cbbca60	0.022923648
53	0x3eab9d4a	0.3351844
54	0xbdd20c83	-0.10256293
55	0xbf0d95eb	-0.5530688
56	0xbe252940	-0.16129017
57	0xbea0b8c9	-0.3139098
58	0xbd3c6446	-0.045994066
59	0xbdeaaff9	-0.11459345
60	0xbde86bf4	-0.113487154
61	0xbe908884	-0.28229153
62	0x40dfc461	6.992722
63	0xbe4780cb	-0.19482724
64	0x40a40d49	5.1266217
65	0xbce677bf	-0.028133271
66	0x39fe60fc	0.00048518914
67	0x3a398679	0.0007077228
68	0xbc97c92e	-0.018528547
69	0x3d523475	0.05131956
70	0x3c05651e	0.008141784
71	0x3cb02672	0.021502707
72	0x3efb9c24	0.49142563
73	0xbe3abd0b	-0.18236177
74	0xbf991ab5	-1.1961275
75	0x3f8e1ee4	1.1103177
76	0xbd2d0e67	-0.042250063
77	0x3f0ef64d	0.55844575
78	0x3f07a300	0.52983093
79	0xbe5ed378	-0.21760356
80	0xbcf89cd9	-0.030348228
81	0x3a389ca3	0.00070423837
82	0xbe72ff80	-0.23730278
83	0x3e42e55c	0.19032806
84	0x3f591c0f	0.8480844
85	0x3f353147	0.70778316
86	0x3eb50408	0.35354638
87	0xbdbcb38c	-0.09213933
88	0x3e85f006	0.26159686
89	0x3e531134	0.20612031
90	0xbca31c7d	-0.019911045
91	0xbca82c44	-0.02052892
92	0x3e3a6bf3	0.18205242
93	0x3f92d15f	1.1470145
94	0xbf138d84	-0.5763781
95	0x3d9f73b1	0.07785738
96	0xbe8d6b56	-0.27620953
97	0xbc8fc568	-0.017550185
98	0xbdecfadd	-0.11571286
99	0xbf10cf2c	-0.5656612
100	0xbf2bd0e2	-0.67115605
101	0x3d4f2404	0.050571457
102	0xbeaa5220	-0.3326578
103	0xbe31e17a	-0.17371169
104	0x3e722c94	0.23649818
105	0x3f06503d	0.52466184
106	0x3d024998	0.031808466
107	0xbd6d1bee	-0.057887964
108	0xbebd79db	-0.3700703
109	0xbc4c04be	-0.0124523025
110	0xbc529329	-0.0128524685
111	0x3f89f28a	1.0777142
112	0xbf6143a2	-0.87993824
113	0x3da24588	0.07923418
114	0x3e5831f4	0.21112806
115	0xbe68e52d	-0.22743674
116	0xbc2eb713	-0.0106637655
117	0xbe361757	-0.17782341
118	0x3e2f69c7	0.17130195
119	0xbd858432	-0.06519355
120	0x3e3c0e05	0.18364723
121	0xbd1b5d8d	-0.037931014
122	0x3c4b776a	0.012418607
123	0xbec753fd	-0.38931265
124	0x3f0ec248	0.557652
125	0x3f733d0e	0.9501504
126	0xbee1ecee	-0.44126076
127	0x3ca7e427	0.020494534
128	0xbe08029e	-0.13282248
129	0x3f0db122	0.5534841
130	0x3f9889f8	1.1917105
131	0xbe0a40ff	-0.13501357
132	0x3e827d22	0.25486094
133	0xbdb614f6	-0.08890717
134	0xbe034b45	-0.12821682
135	0xbee29cf7	-0.4426038
136	0x3d5e7880	0.054314137
137	0xbf0af1c6	-0.54275167
138	0xbe2589af	-0.16165803
139	0xbe9e163d	-0.3087634
140	0x3f531c4f	0.8246507
141	0x3f1bb6ce	0.6082581
142	0xbe266842	-0.16250709
143	0x3e8231ce	0.25428623
144	0x3e245ddd	0.16051431
145	0xbed10d0d	-0.4083027
146	0x3ec6a5e4	0.3879844
147	0x3d335755	0.04378446
148	0xbef51413	-0.47866878
149	0x3e817f47	0.25292417
150	0xbef69c6f	-0.48166224
151	0x3e621dd6	0.22081694
152	0xbc3c0b41	-0.0114772925
153	0x3c8c4e67	0.017127229
154	0xbe384c58	-0.17997873
155	0xbe01a2b0	-0.12659717
156	0x3c1b6969	0.009485581
157	0x3c86cae5	0.01645417
158	0xbbe08535	-0.006851817
159	0xbd432b4c	-0.047648713
160	0xbea35008	-0.31896996
161	0x3e37caaf	0.17948411
162	0xbd6b650f	-0.057469424
163	0x3eb0dc66	0.3454315
164	0xbe67ce84	-0.22637373
165	0x3e2b1396	0.1670669
166	0xbdf25286	-0.11832146
167	0x3ee1d60c	0.44108617
168	0x3f02d599	0.51107174
169	0xbdad0430	-0.08448064
170	0xbd007210	-0.03135878
171	0xbe00e44b	-0.12587087
172	0xbdbdb9d4	-0.092639595
173	0xbec2a5c4	-0.38017094
174	0xbe5c75ad	-0.21529265
175	0x3eb27982	0.34858328
176	0x3b456a0d	0.0030123026
177	0xbf02e4ea	-0.51130545
178	0x3c08e2ee	0.0083548855
179	0xbbca5a3b	-0.006175307
180	0xbf0fffa2	-0.5624944
181	0xbcc3e5f6	-0.023913365
182	0xbd69ac0d	-0.057048846
183	0xbe7bd739	-0.2459382
184	0xbd0530af	-0.03251713
185	0xbe5f6cf6	-0.21818909
186	0xbdeb434f	-0.114874475
187	0x3eda7371	0.426662
188	0xbe0d5658	-0.13802469
189	0xbe8bbc66	-0.27292174
190	0xbdb3c5e9	-0.08777983
191	0x3da5381c	0.08067343
192	0xbe32803d	-0.17431732
193	0x3cd5436d	0.026033128
194	0xbed344fc	-0.41263568
195	0xbcd5b5e0	-0.026087701
196	0x3f10465e	0.5635737
197	0x3d9a9090	0.07547104
198	0x400973d1	2.1476939
199	0x4024d44c	2.5754576
200	0xbdd4c895	-0.103898205
201	0xbe351b6a	-0.17686239
202	0x3ec123f8	0.37722754
203	0x3f110670	0.5665045
204	0xbd176dd0	-0.03696996
205	0x3e9d459e	0.30717176
206	0xbe56d2dc	-0.20978874
207	0xbdbf33a4	-0.093360215
208	0xbb8cccd6	-0.0042968793
209	0x3cf59efd	0.029983038
210	0xbf431081	-0.7619706
211	0x3e3bffb8	0.18359268
212	0xbe809dc9	-0.2512038
213	0x3e04c8c1	0.12967207
214	0xbe485780	-0.19564629
215	0x3d581300	0.052752495
216	0xbdc535aa	-0.09629376
217	0x3df5406f	0.1197518
218	0xbdc35ee1	-0.09539581
219	0xbf2e6e06	-0.6813663
220	0xc0152f35	-2.3310063
221	0x3ee1a82b	0.44073614
222	0x3c3b029c	0.011414196
223	0x3cad54d7	0.021158619
224	0xbe9614d3	-0.29312763
225	0xbd07aa87	-0.033121612
226	0x3ccdae5e	0.025107559
227	0x3c938f09	0.01801254
228	0xbd8f4250	-0.0699507
229	0x3e76c898	0.24099958
230	0xbe8437ce	-0.25823826
231	0x3e8ce1f4	0.2751614
232	0xbe5d16d9	-0.21590747
233	0x3ba34474	0.0049825255
234	0x3f69bcdd	0.9130381
235	0x3f5bb68e	0.8582543
236	0xbebf6f4e	-0.37389606
237	0x3c98ebab	0.018667063
238	0xbcc13475	-0.023584584
239	0x4011baa9	2.2770178
240	0x3d15e720	0.03659737
241	0x3e18ebb0	0.14933658
242	0xbf0ae039	-0.54248387
243	0xbbad7b5b	-0.005294246
244	0x3cd24a5e	0.025670227
245	0xbbafc78c	-0.005364364
246	0xbe18b992	-0.1491454
247	0xbed230ea	-0.41052943
248	0x3f8b6c88	1.0892496
249	0x3fe49fd1	1.7861272
250	0x3c60b8c7	0.013715929
251	0x3da0f186	0.07858567
252	0xbeb3d4c7	-0.35123274
253	0x3e57d4ca	0.21077266
254	0x3ef73372	0.48281437
255	0x3f201e03	0.62545794

0.bias f4 [128]
0	0xbf129d50	-0.5727129
1	0x3f74be5a	0.95602953
2	0xbd499642	-0.049215563
3	0xbdf2813d	-0.118410565
4	0xbe56bf1d	-0.20971341
5	0x3ff95782	1.947983
6	0x3e73806b	0.23779456
7	0xbe086013	-0.133179
8	0x3f49e984	0.7887194
9	0xbe851248	-0.2599051
10	0x3feb055e	1.8361013
11	0xbea993e0	-0.33120632
12	0xbf0c5141	-0.54811484
13	0xbf1ad098	-0.6047454
14	0xbf1d8270	-0.61527157
15	0xbdf3ac4e	-0.11898099
16	0xbeaa19ba	-0.33222753
17	0xbbbce0f9	-0.0057641235
18	0xbe24b123	-0.16083197
19	0x3e87dbf8	0.2653501
20	0xbdccf7a4	-0.10008171
21	0x3f2642ad	0.6494549
22	0xbebdd628	-0.3707745
23	0x4039a085	2.9004223
24	0xbf0ffcb3	-0.56244963
25	0x3dfda6e5	0.12385348
26	0xbf06194b	-0.52382344
27	0xbf29a05e	-0.66260326
28	0xbef75f42	-0.48314863
29	0xbe2baea7	-0.16765843
30	0x3ffcec6d	1.9759651
31	0x3db90254	0.09033647
32	0x3d22d2c8	0.039751798
33	0x3f1e2d89	0.6178823
34	0x3f15ecbe	0.58564365
35	0x3eb15123	0.34632215
36	0xbf33f762	-0.7029935
37	0xbc848b8d	-0.016179824
38	0xbf1d7a6c	-0.61514926
39	0xbf41984e	-0.75623024
40	0x3ed8d1fb	0.42347702
41	0xbef9c2c8	-0.4878142
42	0x3e3e2292	0.18567875
43	0x3e38980f	0.18026756
44	0xbeb4f786	-0.35345095
45	0x3f0e417d	0.5556868
46	0xbf1e9524	-0.6194632
47	0xbf3d3c04	-0.739197
48	0xbeaecd41	-0.3414097
49	0xbf3b7ff5	-0.7324212
50	0xbf3ad9a0	-0.7298832
51	0xbf032ede	-0.5124339
52	0x3f33d425	0.7024558
53	0x3f9a16b4	1.2038178
54	0xbeca512f	-0.39515063
55	0x3ff04fb0	1.8774319
56	0xbf773842	-0.9657022
57	0x3aa6b25c	0.001271795
58	0xbe612d20	-0.2198987
59	0xbe7498f8	-0.23886478
60	0xbcddc731	-0.02707252
61	0xbee446a4	-0.44585145
62	0x3f84bea0	1.0370674
63	0xbeed77cf	-0.4638047
64	0xbf30a119	-0.68995816
65	0x4008ca4a	2.1373467
66	0xbeb3e8b7	-0.35138485
67	0xbf14048c	-0.5781944
68	0xbf19421f	-0.5986652
69	0xbf05de99	-0.5229278
70	0x3e746af1	0.2386892
71	0xbee27d6a	-0.44236308
72	0xbf129eaf	-0.5727338
73	0xbed68fb3	-0.4190651
74	0xbf487add	-0.78312474
75	0x3ddf2c03	0.108970664
76	0x40074f5f	2.1142194
77	0xbea87d0c	-0.32907903
78	0xbca1de3d	-0.019759292
79	0x3fe4c2c3	1.7871937
80	0xbf007560	-0.501791
81	0xbed33ad6	-0.41255826
82	0xbed54be4	-0.41659462
83	0xbf14c120	-0.58107185
84	0xbf1f075a	-0.6212059
85	0x3f0cd982	0.5501939
86	0xbefd5a0b	-0.4948276
87	0xbf179a30	-0.59219646
88	0xbf03b7dd	-0.5145243
89	0xbcb4633d	-0.022019977
90	0xbf1968c3	-0.5992548
91	0xbe9cb30f	-0.3060536
92	0x3f25911d	0.6467455
93	0xbf0edd66	-0.5580658
94	0xbefbe73b	-0.49199852
95	0xbe2cb28e	-0.16864988
96	0xbe525c5a	-0.20543042
97	0xbf32772e	-0.69713104
98	0x3f907ecc	1.1288695
99	0x3f855fa9	1.0419818
100	0x3f90e8d2	1.1321051
101	0xbf3764b3	-0.7163803
102	0xbf06c7c8	-0.5264859
103	0xbe9ccebd	-0.3062648
104	0x3f4775e5	0.7791427
105	0x3ea3f0bb	0.320196
106	0xbec6e63b	-0.38847527
107	0xbec81eea	-0.39086086
108	0xbc08ba9f	-0.008345275
109	0x3e7427e6	0.23843345
110	0x3e248045	0.16064556
111	0xbcd58c82	-0.026067976
112	0xbea7a3d1	-0.3274217
113	0xbd3c8766	-0.046027564
114	0xbf0fab7f	-0.5612106
115	0xbf0940ee	-0.536147
116	0xbe7ba9e1	-0.24576522
117	0x3ff07ac6	1.8787467
118	0xbed137f0	-0.4086299
119	0x4052dc26	3.2946868
120	0xbe83f75d	-0.2577466
121	0xbf179bbc	-0.59222007
122	0x3d67d997	0.056603994
123	0xbf1a5214	-0.6028149
124	0x3ed6fb7e	0.41988748
125	0x3f00cbb9	0.50310856
126	0x3cebf4b4	0.028803207
127	0x3f641bcb	0.8910491

2.weight f4 [128]
0	0x3f800000	1.0
1	0x3dae8ff2	0.08523549
2	0x3a06ac18	0.00051373383
3	0x3e1acecd	0.1511795
4	0x3f12e9e0	0.57388115
5	0x3fb5dc39	1.4207832
6	0x401af040	2.4209137
7	0x3ffd59af	1.9792994
8	0x3e124a6e	0.14286205
9	0x3f661a18	0.89883566
10	0x3f3873ac	0.720515
11	0x3f2db0e9	0.6784807
12	0x3f7f7528	0.9978814
13	0x3ee785bd	0.45219222
14	0x3ec376a8	0.38176465
15	0x3f1f928a	0.62332976
16	0x3f57ca89	0.8429342
17	0x3f860625	1.0470625
18	0x3f3c99d3	0.7367222
19	0xbf6f9faa	-0.93603003
20	0x3f1fe62b	0.62460583
21	0xbd9612b4	-0.07327786
22	0x3f2d580f	0.6771249
23	0x3f798374	0.97466207
24	0x3e9afb27	0.3026974
25	0xbe91fb3d	-0.28511992
26	0x3f800000	1.0
27	0x3f367abc	0.7128103
28	0x3f584f79	0.84496266
29	0x3f611999	0.87929684
30	0xbd32104a	-0.043472566
31	0x4008b069	2.1357672
32	0x40143b80	2.3161316
33	0x39e23254	0.00043143576
34	0xbbefe4b2	-0.007320964
35	0x3ba66148	0.005077515
36	0x3f845d72	1.0341017
37	0x3fa85a37	1.3152531
38	0x3f78a041	0.9711953
39	0x3f99aee6	1.20065
40	0xba50aa80	-0.0007959977
41	0x3f800000	1.0
42	0x3f8bef63	1.093243
43	0xbf87d6af	-1.0612391
44	0x3f800000	1.0
45	0xbba4cb38	-0.0050291084
46	0x3fb3621f	1.4014319
47	0x3f04a136	0.5180849
48	0x3f4829cf	0.78188795
49	0x3f7b60aa	0.9819437
50	0x3f8aaf2e	1.0834711
51	0x3f6ad0aa	0.91724646
52	0x3f15556e	0.5833348
53	0x3f7c88be	0.9864615
54	0x3f43b21f	0.76443666
55	0xbecc5b0b	-0.3991321
56	0x3f4e2486	0.8052448
57	0xbf2e39e0	-0.6805706
58	0x3ef62f35	0.4808289
59	0x3f0663b1	0.52495867
60	0x4006080b	2.094241
61	0x3f44479f	0.76671785
62	0x3f2568d3	0.64613074
63	0x3f2ef10b	0.6833655
64	0x3ec47e5d	0.38377658
65	0x3ecd6358	0.40114856
66	0x3f3ffdc3	0.74996585
67	0x3f757209	0.9587713
68	0x3f40663e	0.7515601
69	0x3f0d56f6	0.55210817
70	0x3ff614f8	1.9225149
71	0x3f49160d	0.7854927
72	0x3fc16ebc	1.5111918
73	0x3f5293b1	0.8225661
74	0x3f8e1f13	1.1103233
75	0x401eb5b0	2.4798393
76	0x3fda2d2b	1.7045034
77	0x3f46aa34	0.7760346
78	0xba6bc431	-0.00089937734
79	0x3b6f3f14	0.0036506103
80	0x3f3a22ce	0.7270936
81	0x3ed62e23	0.41832075
82	0x3f81ec9b	1.0150331
83	0x3f03d9d1	0.51504236
84	0x3f800000	1.0
85	0x3c74629f	0.014916091
86	0x3f975da2	1.182545
87	0x3f7f8fda	0.99828875
88	0x3f512005	0.8168948
89	0x3ef93ac5	0.4867765
90	0x3f3ce71b	0.7379014
91	0x3f07f77a	0.53111994
92	0x3e233b9f	0.15940712
93	0x3ee758a2	0.4518481
94	0x3f800000	1.0
95	0x3ef184a3	0.47171506
96	0x3f2d9d30	0.67817974
97	0x3f800000	1.0
98	0x3f0688f7	0.5255274
99	0x3fdabaf7	1.7088307
100	0xbbaf7b24	-0.0053552557
101	0x3f78f8ac	0.97254443
102	0x3f800000	1.0
103	0x3ef52698	0.47881007
104	0xbbffde1f	-0.0078084613
105	0x40025d9d	2.0369637
106	0x3f0fce53	0.561742
107	0x3f800000	1.0
108	0x3f37f3c4	0.7185633
109	0x3f953069	1.1655399
110	0x3ff9e839	1.9523994
111	0x3f674041	0.9033242
112	0x3c66d685	0.014089231
113	0x3e846429	0.25857666
114	0x3f800000	1.0
115	0x3f361d24	0.71138215
116	0x3f1d33f2	0.6140739
117	0x3d9cded0	0.076596856
118	0x3f82c78e	1.0217149
119	0x3f84e249	1.0381557
120	0x3f800000	1.0
121	0x3eb9e828	0.36309934
122	0x3e806107	0.25074026
123	0x3ee8e3c9	0.45486286
124	0x3f840ea6	1.031697
125	0xbc0a0c2f	-0.008425756
126	0x3f454b79	0.7706829
127	0x3e0abab3	0.13547783

2.bias f4 [128]
0	0x3f824c83	1.01796
1	0xbeed5c22	-0.46359354
2	0xbeba6095	-0.3640181
3	0xbf3f9272	-0.7483283
4	0x3e920536	0.285196
5	0x3ef2f6de	0.4745397
6	0xbea824c6	-0.32840556
7	0xbe3cfd41	-0.18455984
8	0xbf102a30	-0.56314373
9	0xbeaea8d2	-0.34113175
10	0xbf15be37	-0.5849337
11	0x3d981edc	0.07427761
12	0xbf03de8e	-0.51511467
13	0x3f3d32df	0.7390575
14	0x3e2be33c	0.16785902
15	0x3eeafed1	0.45897534
16	0x3f04163a	0.51596415
17	0x3efe207c	0.4963416
18	0x3ef617a5	0.48064914
19	0xbeb83190	-0.35975313
20	0xbda21111	-0.079134114
21	0xbd470e47	-0.0485976
22	0x3ea69918	0.32538676
23	0x3ea308bd	0.31842604
24	0xbdc82849	-0.09773309
25	0x3dc2e50f	0.09516346
26	0x3f9b82bb	1.2149271
27	0xbf1222f7	-0.570846
28	0x3f1b8bff	0.6076049
29	0xbf35f70e	-0.710801
30	0x3f559398	0.83428335
31	0x3e9b3f8f	0.3032193
32	0x3ed9ad91	0.42515233
33	0x3ab33696	0.0013672884
34	0xbb48633e	-0.003057673
35	0x3b1bf893	0.0023799285
36	0x3ee6d1ea	0.45082027
37	0xbf3ad719	-0.7298446
38	0x3f553971	0.83290774
39	0x3e8c1854	0.2736231
40	0xb9bc5a61	-0.00035925492
41	0xbf927085	-1.1440588
42	0x3f06178f	0.523797
43	0xbe264100	-0.16235733
44	0x3f40b3d6	0.7527441
45	0xbcd01ec2	-0.025405291
46	0xbee4d863	-0.4469634
47	0xbdeedf26	-0.11663656
48	0x3f3c152d	0.7346981
49	0x3f1f09d2	0.6212436
50	0xbe82e0a8	-0.25562024
51	0x3ef5719d	0.47938243
52	0xbeda461c	-0.42631614
53	0xbea88ce5	-0.32919994
54	0xbf0237cd	-0.50866395
55	0xbdecdf51	-0.11566032
56	0xbf2b91f9	-0.6701961
57	0xbecd096c	-0.4004625
58	0x3db0905a	0.08621283
59	0xbe919f57	-0.2844188
60	0xbd07744f	-0.033069905
61	0x3ee5a2fa	0.44850904
62	0x3eb22450	0.3479333
63	0x3ec44073	0.3833042
64	0x3ee303d8	0.4433887
65	0x3efae7d1	0.49004987
66	0x3f01976b	0.5062167
67	0xbe9d6c17	-0.30746529
68	0x3f018bc4	0.5060389
69	0xbf176a84	-0.59146905
70	0x3d3939c3	0.0452211
71	0x3ed3f4f5	0.41397825
72	0x3d91550f	0.07096302
73	0xbe5b80b2	-0.21435812
74	0xbe3f81ca	-0.18701854
75	0x3ecbb4db	0.3978642
76	0x3eb99487	0.3624613
77	0xbf1572e7	-0.5837845
78	0xbd10a8f7	-0.035317387
79	0xbe78b553	-0.2428792
80	0xbe51c88b	-0.20486657
81	0x3eb53234	0.35389864
82	0xbf71df46	-0.94481313
83	0x3ee18ab1	0.44051126
84	0x3f757c73	0.9589302
85	0xbedac8a3	-0.427312
86	0xbd10c745	-0.03534629
87	0xbf77abdc	-0.9674661
88	0xbdbd6e22	-0.09249522
89	0xbf6adb0f	-0.91740507
90	0x3f2d9062	0.67798436
91	0xbe05a4c4	-0.13051134
92	0xbeb277c3	-0.34856996
93	0xbeb338f5	-0.35004392
94	0x3f9dc6d5	1.2326304
95	0x3ed3f998	0.41401362
96	0xbf0a4418	-0.5401015
97	0x3f922e2b	1.1420339
98	0x3ee3277b	0.4436606
99	0xbf13bcf0	-0.5771017
100	0x3d6e7376	0.05821558
101	0x3f488598	0.7832885
102	0xbf58eb0f	-0.8473367
103	0xbefa51c1	-0.48890498
104	0xbbb01f3e	-0.005374818
105	0xbe5911d2	-0.21198204
106	0x3f61e9c4	0.88247323
107	0xbf8fbe31	-1.1229917
108	0xbedeb0ad	-0.43494168
109	0xbccecce9	-0.025244193
110	0xbf076b18	-0.5289779
111	0xbd135120	-0.03596604
112	0x3f2e8aa9	0.6818033
113	0x3f1d6913	0.61488456
114	0x3f702f44	0.9382212
115	0x3dcee18c	0.101016134
116	0x3f096f96	0.5368589
117	0xbeeb8d29	-0.46006134
118	0xbf189b7d	-0.59612256
119	0xbea1cc3b	-0.31601128
120	0xbf75da2b	-0.9603602
121	0x3ec22dfe	0.37925714
122	0xbf6eb26d	-0.93241006
123	0xbed2d86f	-0.4118075
124	0x3ed5db6c	0.41768968
125	0xbfa198e5	-1.2624785
126	0x3f1db5a9	0.61605316
127	0xbeeb4e5d	-0.45958224

2.running_mean f4 [128]
0	0x00000000	0.0
1	0x3f780130	0.9687681
2	0x00000004	6e-45
3	0x00000004	6e-45
4	0x00000004	6e-45
5	0x3fe696aa	1.8014729
6	0x3f1e951e	0.61946285
7	0x3cf55ac8	0.029950514
8	0x3f4bf12f	0.7966489
9	0x00000004	6e-45
10	0x3fccea14	1.6008935
11	0x00000004	6e-45
12	0x00000004	6e-45
13	0x00000004	6e-45
14	0x00000004	6e-45
15	0x00000004	6e-45
16	0x00000004	6e-45
17	0x3d1aea8d	0.03782134
18	0x00000004	6e-45
19	0x3e909359	0.28237417
20	0x3b9cf171	0.0047895242
21	0x3f267f6a	0.6503817
22	0x00000004	6e-45
23	0x402b4c74	2.6765413
24	0x00000004	6e-45
25	0x3e1258f9	0.14291753
26	0x00000000	0.0
27	0x00000004	6e-45
28	0x00000004	6e-45
29	0x00000004	6e-45
30	0x4000684f	2.0063665
31	0x3f7fe881	0.9996415
32	0x3f371546	0.71516836
33	0x3f1e2b0e	0.61784446
34	0x3f15004d	0.58203584
35	0x3eaeb4f5	0.34122434
36	0x00000004	6e-45
37	0x3ea7c37b	0.32766327
38	0x00000004	6e-45
39	0x00000004	6e-45
40	0x3eda3414	0.42617857
41	0x00000000	0.0
42	0x3e6aa781	0.2291546
43	0x3e3223c9	0.17396463
44	0x00000000	0.0
45	0x3f0fa2ad	0.561076
46	0x3d044111	0.032288615
47	0x00000004	6e-45
48	0x00000004	6e-45
49	0x00000004	6e-45
50	0x00000004	6e-45
51	0x00000004	6e-45
52	0x3f275f57	0.6537985
53	0x3f9a74ed	1.2066933
54	0x00000004	6e-45
55	0x3fe96b81	1.8235933
56	0x00000004	6e-45
57	0x3d626a51	0.055277172
58	0x00000004	6e-45
59	0x00000004	6e-45
60	0x3c755d5c	0.014975872
61	0x00000004	6e-45
62	0x3f7117fa	0.9417721
63	0x00000004	6e-45
64	0x00000004	6e-45
65	0x4001ec50	2.0300484
66	0x00000004	6e-45
67	0x00000004	6e-45
68	0x00000004	6e-45
69	0x00000004	6e-45
70	0x3e800cb7	0.250097
71	0x00000004	6e-45
72	0x00000004	6e-45
73	0x00000004	6e-45
74	0x00000004	6e-45
75	0x3e34500a	0.17608657
76	0x40074807	2.1137712
77	0x00000004	6e-45
78	0x00000004	6e-45
79	0x3fe578f7	1.792754
80	0x00000004	6e-45
81	0x00000004	6e-45
82	0x00000004	6e-45
83	0x00000004	6e-45
84	0x00000000	0.0
85	0x3f10b94d	0.56532747
86	0x00000004	6e-45
87	0x00000004	6e-45
88	0x00000004	6e-45
89	0x00000004	6e-45
90	0x00000004	6e-45
91	0x00000004	6e-45
92	0x3f29b7ab	0.6629588
93	0x00000004	6e-45
94	0x00000000	0.0
95	0x00000004	6e-45
96	0x00000004	6e-45
97	0x00000000	0.0
98	0x3f896f79	1.0737144
99	0x3f80c3e5	1.0059782
100	0x3f937008	1.1518564
101	0x00000004	6e-45
102	0x00000000	0.0
103	0x00000004	6e-45
104	0x3f462bf4	0.7741082
105	0x3ecf35cb	0.40470728
106	0x00000004	6e-45
107	0x00000000	0.0
108	0x3cded35b	0.027200392
109	0x3ea2963e	0.3175525
110	0x3f2084c9	0.62702614
111	0x00000004	6e-45
112	0x00000004	6e-45
113	0x00000004	6e-45
114	0x00000000	0.0
115	0x00000004	6e-45
116	0x00000004	6e-45
117	0x3fe05dd2	1.7528632
118	0x00000004	6e-45
119	0x404b9823	3.1811607
120	0x00000000	0.0
121	0x00000004	6e-45
122	0x3d6bb6f8	0.05754754
123	0x00000004	6e-45
124	0x3efa8f8c	0.48937643
125	0x3efd12f3	0.4942852
126	0x3dcff191	0.10153497
127	0x3f50f27a	0.8161999

2.running_var f4 [128]
0	0x00000004	6e-45
1	0x3b851c2d	0.0040621967
2	0x00000004	6e-45
3	0x00000004	6e-45
4	0x00000004	6e-45
5	0x3fdd05bc	1.7267375
6	0x3f2f9e8a	0.68601286
7	0x3b94d1a7	0.004541594
8	0x3acede01	0.0015782715
9	0x00000004	6e-45
10	0x3fb8e92b	1.4446157
11	0x00000004	6e-45
12	0x00000004	6e-45
13	0x00000004	6e-45
14	0x00000004	6e-45
15	0x00000004	6e-45
16	0x00000004	6e-45
17	0x3b461123	0.0030222617
18	0x00000004	6e-45
19	0x3dc888ac	0.09791693
20	0x397dd92d	0.00024208864
21	0x3ca539f4	0.020169236
22	0x00000004	6e-45
23	0x3fad2ba7	1.3528947
24	0x00000004	6e-45
25	0x3bf66fce	0.0075206524
26	0x00000004	6e-45
27	0x00000004	6e-45
28	0x00000004	6e-45
29	0x00000004	6e-45
30	0x3c8f12e8	0.01746507
31	0x4010c0dc	2.2617712
32	0x3f98193b	1.18827
33	0x340ba78c	1.3006337e-07
34	0x3a3930dc	0.00070644706
35	0x38f1df1c	0.00011533333
36	0x00000004	6e-45
37	0x3e9df7cc	0.30853117
38	0x00000004	6e-45
39	0x00000004	6e-45
40	0x39487700	0.00019117817
41	0x00000004	6e-45
42	0x3d9e9072	0.077423945
43	0x3c96a289	0.01838805
44	0x00000004	6e-45
45	0x392616ca	0.00015839483
46	0x3c39e763	0.011346671
47	0x00000004	6e-45
48	0x00000004	6e-45
49	0x00000004	6e-45
50	0x00000004	6e-45
51	0x00000004	6e-45
52	0x3d7f688b	0.06235556
53	0x3a86aad5	0.0010274301
54	0x00000004	6e-45
55	0x3e7d4258	0.2473234
56	0x00000004	6e-45
57	0x3ba464ce	0.0050168997
58	0x00000004	6e-45
59	0x00000004	6e-45
60	0x3a7c6a28	0.00096288556
61	0x00000004	6e-45
62	0x3e5a6314	0.21326858
63	0x00000004	6e-45
64	0x00000004	6e-45
65	0x3e9b6238	0.30348372
66	0x00000004	6e-45
67	0x00000004	6e-45
68	0x00000004	6e-45
69	0x00000004	6e-45
70	0x3da05f3c	0.078306645
71	0x00000004	6e-45
72	0x00000004	6e-45
73	0x00000004	6e-45
74	0x00000004	6e-45
75	0x3d3e36e9	0.046439085
76	0x38e87d26	0.00011085933
77	0x00000004	6e-45
78	0x00000004	6e-45
79	0x39eea844	0.00045520265
80	0x00000004	6e-45
81	0x00000004	6e-45
82	0x00000004	6e-45
83	0x00000004	6e-45
84	0x00000004	6e-45
85	0x3b5604a1	0.0032656568
86	0x00000004	6e-45
87	0x00000004	6e-45
88	0x00000004	6e-45
89	0x00000004	6e-45
90	0x00000004	6e-45
91	0x00000004	6e-45
92	0x3c2105b8	0.009828024
93	0x00000004	6e-45
94	0x00000004	6e-45
95	0x00000004	6e-45
96	0x00000004	6e-45
97	0x00000004	6e-45
98	0x3d815334	0.06314698
99	0x3f837383	1.0269626
100	0x3bfd3937	0.007727768
101	0x00000004	6e-45
102	0x00000004	6e-45
103	0x00000004	6e-45
104	0x3965bb13	0.00021908832
105	0x3de5d2ee	0.11221872
106	0x00000004	6e-45
107	0x00000004	6e-45
108	0x3b243d61	0.0025060999
109	0x3d832865	0.06404189
110	0x3f2cb77c	0.67467475
111	0x00000004	6e-45
112	0x00000004	6e-45
113	0x00000004	6e-45
114	0x00000004	6e-45
115	0x00000004	6e-45
116	0x00000004	6e-45
117	0x3e8f60a5	0.2800342
118	0x00000004	6e-45
119	0x3f8d2a76	1.1028583
120	0x00000004	6e-45
121	0x00000004	6e-45
122	0x39231643	0.00015553184
123	0x00000004	6e-45
124	0x3eac0c8e	0.33603328
125	0x3aa22519	0.0012370675
126	0x3cb742a1	0.022370638
127	0x3de3b03b	0.11117598

3.weight f4 [128, 128]
0	0xbe451dc3	-0.19249634
1	0x3d792e24	0.06083502
2	0x3c563a32	0.013075398
3	0x3def7982	0.11693098
4	0xbeb32a19	-0.34993055
5	0x3dcbae9a	0.09945412
6	0x3b7f9bb6	0.0039002723
7	0x3b595e18	0.0033167657
8	0x3defc2d0	0.117070794
9	0x3dce65e5	0.100780286
10	0xbd627db9	-0.05529568
11	0x3e0e02f0	0.13868308
12	0x3ea4aa80	0.3216133
13	0xbe561c57	-0.20909248
14	0x3d70416e	0.05865615
15	0xbe2e4ece	-0.17022249
16	0xbe360227	-0.17774259
17	0xbdb810ce	-0.0898758
18	0xbe6fb140	-0.2340746
19	0xbc3ea2d7	-0.011635504
20	0xbe08aebc	-0.13347906
21	0x3d793119	0.06083784
22	0xbe128b49	-0.14310946
23	0x3d079664	0.033102408
24	0x3e4c9f98	0.19982755
25	0xbd96bd9c	-0.07360384
26	0xbeab34c2	-0.3343869
27	0xbddccd00	-0.10781288
28	0xbe335efd	-0.17516704
29	0xbcee3a29	-0.029080467
30	0xbe0e125f	-0.13874196
31	0x3d36884b	0.044563573
32	0xbbce3a16	-0.0062935455
33	0xbcc40d9f	-0.023932276
34	0xbd817eaa	-0.063229874
35	0xbd0c293b	-0.034219008
36	0xbdd2bc05	-0.10289768
37	0x3d8a024a	0.06738718
38	0xbe37738a	-0.17915168
39	0xbd1ec122	-0.038758405
40	0x3c1604cc	0.009156417
41	0x3e8751db	0.26429638
42	0xbe53a9dd	-0.20670266
43	0xbd95669e	-0.07294963
44	0xbe56dbe0	-0.20982313
45	0x3cbebbea	0.023282964
46	0x3c807788	0.015681997
47	0xbdd5db94	-0.10442272
48	0xbdbde16c	-0.092715114
49	0xbe2e5c32	-0.17027357
50	0xbc0f671f	-0.008752613
51	0xbd0f102a	-0.034927525
52	0x3d7e10ac	0.06202762
53	0xbe1b5fc3	-0.15173249
54	0x3e5111ef	0.20416997
55	0xbde292b2	-0.11063136
56	0x3dab061f	0.08350777
57	0x3e33419c	0.17505497
58	0xbd3a9d33	-0.045560073
59	0x3d5d7d67	0.05407467
60	0xbcc2f3f9	-0.023797976
61	0x3d317a97	0.0433298
62	0xbcf0133f	-0.029306052
63	0xbea0abcb	-0.31381068
64	0xbe537b5c	-0.20652527
65	0xbdf398b0	-0.11894357
66	0xbc9c9b0d	-0.019116903
67	0x3e8963ff	0.26834103
68	0xbe60d46c	-0.21956033
69	0x3e3aedcd	0.18254776
70	0x3d20e401	0.03927994
71	0xbe37dfb6	-0.17956433
72	0xbb716b43	-0.0036837615
73	0xbd0ce7f2	-0.034400888
74	0x3d2e0746	0.042487405
75	0xbe1a9077	-0.15094171
76	0x3d7b6b1f	0.061381456
77	0x3e86c8db	0.26325116
78	0x3cf50961	0.029911699
79	0xbc5a8065	-0.013336276
80	0x3d6ae319	0.057345483
81	0x3cfb119d	0.030648047
82	0x3eac5a74	0.3366276
83	0xbdcbc5e6	-0.099498555
84	0xbebb4228	-0.3657391
85	0x3cf75df3	0.030196166
86	0x3db83e13	0.08996215
87	0x3e93e856	0.28888196
88	0xbd9b1f34	-0.07574311
89	0xbd5c9db0	-0.05386132
90	0xbd4769d9	-0.04868493
91	0xbd8ccd92	-0.06875147
92	0x3db273f7	0.08713525
93	0xbe16b4f7	-0.1471747
94	0xbe90f296	-0.28310078
95	0xbe817be8	-0.25289845
96	0x3d99f703	0.07517817
97	0xbe32aeb7	-0.17449461
98	0x3df75561	0.120768316
99	0x3e31f97c	0.17380327
100	0x3e250b9d	0.16117711
101	0xbe6d2fcc	-0.23162764
102	0x3e5e57fe	0.21713254
103	0x3cdb71ef	0.026787726
104	0x3d780d97	0.060559835
105	0xbc5a0830	-0.013307616
106	0x3d9c062f	0.07618367
107	0x3e37d1cb	0.17951123
108	0xbd323937	-0.043511596
109	0xbd75ed6e	-0.060040884
110	0x3ddb2027	0.10699492
111	0xbdbf16bd	-0.09330509
112	0xbd735aa8	-0.05941263
113	0xbe54253a	-0.20717326
114	0xbe8805aa	-0.2656682
115	0x3e24a81f	0.16079758
116	0xbd78fbfa	-0.06078718
117	0x3cf14f94	0.029456891
118	0xbe9b8039	-0.30371264
119	0x3cdcedb5	0.026968816
120	0x3e8782c5	0.26466957
121	0xbe6bd705	-0.23031242
122	0x3caa3f2b	0.020782074
123	0x3d1597ac	0.0365216
124	0xbe17ac16	-0.1481174
125	0x3d7e33a3	0.062060963
126	0xbe61c13d	-0.22046371
127	0x3c6454bb	0.013936217
128	0xbd2ba313	-0.041903567
129	0x3d378c54	0.04481156
130	0xbdb13cb5	-0.08654157
131	0xbcbbb873	-0.0229151
132	0x3e1544e9	0.14577068
133	0x3ed9f4f1	0.42569688
134	0x3f0c3511	0.5476847
135	0xbf768edc	-0.96311736
136	0xbc51d6e3	-0.012807581
137	0xba2af089	-0.0006520828
138	0x3e119c6a	0.14219823
139	0x3ec1438e	0.37746853
140	0xbcd0ca08	-0.025486961
141	0xbde6148f	-0.1123439
142	0xbc5c804f	-0.0134583255
143	0xbd22cb35	-0.039744575
144	0xbd8527d6	-0.06501739
145	0xc028bdac	-2.6365767
146	0x3d60fbdb	0.054927688
147	0x3ef7203b	0.48266777
148	0xbf73cbbb	-0.95232743
149	0x3e32ed2e	0.1747329
150	0xbaad8e5c	-0.0013241279
151	0x3eaa6de1	0.33286956
152	0x3d777492	0.060413904
153	0x3de415de	0.11136983
154	0xbe0bb867	-0.13644563
155	0xbdf76bc6	-0.12081103
156	0x3db80c07	0.08986669
157	0xbd73d3e0	-0.05952823
158	0x3d393098	0.04521236
159	0xc021afe1	-2.5263598
160	0xc0488dad	-3.1336472
161	0xbbb89114	-0.005632529
162	0x3bf344f6	0.0074239923
163	0x3ba5ddfe	0.005061864
164	0xbd71057f	-0.058843132
165	0xbe723bbc	-0.236556
166	0xbb9513f3	-0.0045494973
167	0x3df198a3	0.11796691
168	0x3a4a9728	0.00077282125
169	0x3e1214e1	0.14265777
170	0x3ebb9615	0.3663794
171	0x3f9006fa	1.1252129
172	0x3bd17ed8	0.006393295
173	0x3c9fba01	0.019497873
174	0xbba5867a	-0.0050514312
175	0x3d120b88	0.03565553
176	0xbdc83c08	-0.09777075
177	0x3d218a7f	0.03943872
178	0xbd55d40d	-0.05220418
179	0xbcc06c16	-0.02348904
180	0x3e4529a1	0.19254161
181	0x3e9bf1c5	0.30457893
182	0xbd9f3c60	-0.077751875
183	0xbe98fafa	-0.2987898
184	0x3bd7e6ed	0.006588808
185	0xbfa28e47	-1.269967
186	0x3c7a7230	0.0152860135
187	0xbcb5ceea	-0.02219339
188	0x3f6ff0d9	0.9372688
189	0x3dc875bf	0.09788083
190	0x3e4c926d	0.19977732
191	0x3d82a807	0.06379705
192	0xbb06bcbb	-0.002055927
193	0x3ee9d199	0.45667723
194	0xbd67ede6	-0.056623362
195	0xbf702151	-0.93800837
196	0x3cb9534d	0.022622729
197	0xbdb2bfab	-0.08727964
198	0xbe0f4a63	-0.1399322
199	0xbbb1134d	-0.005403912
200	0x3ebb9c69	0.3664277
201	0xbd0c1819	-0.03420267
202	0xbd97f572	-0.07419862
203	0x3e3e12ef	0.1856191
204	0xbc864a32	-0.016392801
205	0xbd2f6ad9	-0.042826507
206	0x3c5b13f6	0.013371458
207	0x3d1b0ebe	0.037855856
208	0x3d19960c	0.03749661
209	0x3c2fe616	0.010736009
210	0x3dc6167b	0.096722566
211	0xbc1cff98	-0.009582423
212	0xbdb8f1c6	-0.090304896
213	0x3d1df415	0.038562853
214	0x3dfec4de	0.12439893
215	0x3e0431b4	0.12909585
216	0xbdf8d379	-0.1214971
217	0x3c86d305	0.016458044
218	0xbdf6ba64	-0.1204727
219	0x3b95bfc7	0.004569981
220	0xbd1844bd	-0.03717493
221	0xbc93dda8	-0.01805003
222	0xbdec578d	-0.115401365
223	0xbd71914f	-0.058976468
224	0x3d3e35bc	0.046437964
225	0xbe1dda78	-0.1541537
226	0x3f1289e9	0.57241684
227	0x3ed551de	0.41664022
228	0x3d576e03	0.05259515
229	0xbb7ddd83	-0.0038736768
230	0x3d2f0cba	0.042736746
231	0xbc5fb6d5	-0.01365443
232	0x3c1e0d48	0.009646721
233	0x3e3f4343	0.18678002
234	0xbcb799b0	-0.022412151
235	0x3e091b4c	0.13389319
236	0x3db23874	0.08702174
237	0xbc694550	-0.014237717
238	0x3f5fb858	0.8739066
239	0x3e59b202	0.21259311
240	0xbf579cdf	-0.8422374
241	0xbd6d2f01	-0.057906155
242	0xbdf5895b	-0.11989089
243	0x3d557aca	0.052119054
244	0x3c7d23e6	0.015450453
245	0x3e044969	0.12918629
246	0xbd6f9ad6	-0.058497272
247	0x3e91de5d	0.28489962
248	0x3db98fd2	0.09060635
249	0x3d6b0d08	0.057385474
250	0xbe2838c3	-0.16427903
251	0x3cc1d480	0.023660898
252	0xbfb1e1c9	-1.3897029
253	0x3ca8206b	0.02052327
254	0x3d3f7e11	0.046751086
255	0x3d80f3c4	0.062964946

3.bias f4 [128]
0	0xbead0a3e	-0.33796877
1	0xbdf38e4b	-0.118923746
2	0xbe40e8c0	-0.18838787
3	0xbe1e019a	-0.15430298
4	0x3e90fd3f	0.2831821
5	0xbe2b9037	-0.16754232
6	0xbe14060d	-0.14455433
7	0x3f6079b1	0.87685686
8	0x3efdd555	0.49576822
9	0xbe262480	-0.16224861
10	0xbe4eb4f2	-0.20186213
11	0xbe1c8336	-0.15284428
12	0xbe866312	-0.2624746
13	0xbe003512	-0.12520245
14	0xbe93fd51	-0.28904203
15	0xbe600ef8	-0.2188071
16	0xbe5326a4	-0.20620209
17	0x3cec3d9e	0.028837975
18	0xbda0e2bf	-0.078557484
19	0xbe565c45	-0.20933636
20	0xbebb1c05	-0.36544815
21	0xbe9c48f4	-0.3052441
22	0xbdc9cef0	-0.09853923
23	0xbd820497	-0.06348532
24	0xbe514f8c	-0.20440501
25	0xbe0d8ed5	-0.13824017
26	0xbe4aab3b	-0.19791882
27	0xbddf8061	-0.10913158
28	0xbe87afc0	-0.26501274
29	0xbdd87786	-0.10569672
30	0xbe5fa652	-0.2184079
31	0xbe2f9541	-0.1714678
32	0xbdfd066d	-0.12354741
33	0xbe7f5315	-0.24934037
34	0xbe602f85	-0.21893127
35	0xbf0a775a	-0.54088366
36	0xbe4d8270	-0.20069289
37	0xbe645c85	-0.22300918
38	0xbe8f59a4	-0.27998078
39	0xbed372db	-0.41298565
40	0xbe3a3581	-0.18184473
41	0xbe9915d0	-0.29899454
42	0xbda5e50a	-0.08100326
43	0xbe98b17b	-0.29822907
44	0xbe64f21c	-0.22357982
45	0xbe267627	-0.16256009
46	0xbe723b67	-0.23655473
47	0xbdd41b7d	-0.103568055
48	0xbe0cf73b	-0.13766186
49	0xbe478622	-0.19484761
50	0xbe4a6420	-0.19764757
51	0xbda5cfb3	-0.08096256
52	0xbe83f9fc	-0.2577666
53	0xbdcd2d7a	-0.100184396
54	0xbde7a1d1	-0.11310161
55	0xbdaacc7c	-0.083397835
56	0xbdfdcd32	-0.123926535
57	0xbe801b12	-0.25020653
58	0xbe931986	-0.2873041
59	0xbe1c7fff	-0.15283202
60	0xbe4ee45e	-0.20204303
61	0xbe7cad33	-0.24675445
62	0xbe2c0418	-0.16798437
63	0xbe7f0010	-0.24902368
64	0xbdd6cc1a	-0.10488148
65	0xbe1b7d13	-0.15184431
66	0xbdf45892	-0.11930956
67	0xbe437e1c	-0.19091076
68	0xbde78f0f	-0.11306583
69	0xbe8633b7	-0.2621133
70	0xbdf31747	-0.11869674
71	0xbde40b6a	-0.111349896
72	0xbe4c7750	-0.19967389
73	0xbeb4f9ac	-0.35346735
74	0xbe8084c2	-0.25101286
75	0xbe5a4763	-0.21316294
76	0xbee5eb71	-0.4490619
77	0xbea1c4a8	-0.3159535
78	0xbc8b19d4	-0.01698009
79	0xbeb1a0d5	-0.34693018
80	0xbe2bfe70	-0.16796279
81	0xbe76fb27	-0.24119245
82	0xbe72fe8b	-0.23729913
83	0xbdbf3688	-0.09336573
84	0xbe476d40	-0.1947527
85	0xbe59fc57	-0.21287666
86	0xbe7c5937	-0.24643408
87	0xbdff4f6f	-0.12466323
88	0xbe9a78e1	-0.30170348
89	0xbe474232	-0.19458845
90	0xbe204a64	-0.15653378
91	0xbe86da7f	-0.26338574
92	0xbe42ec12	-0.19035366
93	0xbe60637b	-0.21912949
94	0xbe33b07a	-0.17547789
95	0xbdb67b9b	-0.089102946
96	0xbe23cd07	-0.1599618
97	0xbe1ea7be	-0.15493676
98	0xbe44c704	-0.19216543
99	0xbe5ce89d	-0.2157311
100	0xbe2590ca	-0.16168514
101	0xbe618c40	-0.22026157
102	0xbe960173	-0.2929798
103	0xbea2bea7	-0.3178608
104	0xbe1e8f51	-0.15484358
105	0xbd9ffe6d	-0.078122
106	0xbea5bb5e	-0.32369512
107	0xbe533f35	-0.2062958
108	0xbea1e745	-0.31621757
109	0xbe911b20	-0.28341007
110	0xbe11c5f1	-0.14235665
111	0xbe60dced	-0.21959276
112	0xbe140842	-0.14456275
113	0xbe28f133	-0.1649826
114	0xbe782ac4	-0.24235064
115	0xbd918f14	-0.07107368
116	0xbe46f081	-0.19427682
117	0xbe0b5fcd	-0.13610764
118	0xbf38fef3	-0.7226402
119	0xbe13dcaa	-0.14439645
120	0xbea44a6e	-0.32088035
121	0xbe03813f	-0.12842272
122	0xbe840554	-0.25785315
123	0xbe0159ac	-0.12631863
124	0xbe6449ab	-0.22293727
125	0xbccc4041	-0.024932982
126	0x3e42b934	0.19015962
127	0xbe0a3d79	-0.13500012

5.weight f4 [128]
0	0x3cb198bd	0.021679277
1	0x3db7a82b	0.08967622
2	0x3bbeac7a	0.0058189007
3	0x3ea1aa43	0.31575212
4	0x3d7adb15	0.06124409
5	0xbb70f76e	-0.0036768573
6	0x3ca6b80a	0.020351429
7	0x3ddf59c4	0.10905793
8	0x3d8446fd	0.064588524
9	0x3b1141b9	0.0022164418
10	0x3f15082d	0.582156
11	0x3e2b722c	0.16742772
12	0x3c8a17f0	0.016857117
13	0x3ce8626d	0.028367246
14	0xbbb359ae	-0.005473337
15	0x3e037a91	0.12839724
16	0x3e8fb437	0.2806718
17	0x3d8c521c	0.068515986
18	0xba8a8591	-0.001056837
19	0x3ef5d056	0.4801051
20	0x3d38502f	0.044998344
21	0x3bd6fb55	0.006560723
22	0x3f304a2a	0.68863165
23	0x3ee5995d	0.4484357
24	0x3e82e52e	0.25565475
25	0x3c89a733	0.01680336
26	0x3ab5876e	0.0013849565
27	0xbc1ae32b	-0.009453575
28	0x3ecd2413	0.40066585
29	0x3eee0731	0.46489862
30	0xbcf4a4d6	-0.029863756
31	0x3e8b4b26	0.2720577
32	0x3dcbc888	0.09950358
33	0x3f663cd5	0.8993657
34	0x3f3f95ec	0.7483814
35	0xbcdf6ad2	-0.027272616
36	0x3bfdbbf7	0.0077433544
37	0x3f46145d	0.7737482
38	0x3b81dab1	0.0039628376
39	0x3c58c103	0.013229611
40	0x3c1b27c5	0.009469931
41	0x3cb582e0	0.022157133
42	0x3c841254	0.01612202
43	0x3c442f23	0.011974129
44	0x3f2f4cbb	0.68476456
45	0xbbc0cdbf	-0.005883902
46	0x3ee180c0	0.4404354
47	0x3ea5169d	0.32243815
48	0x3c7912b2	0.015202211
49	0x3c626d75	0.013820042
50	0x3e1b2c15	0.15153535
51	0x3d6068c7	0.054787423
52	0x3f41d947	0.75722164
53	0x3f597a26	0.8495201
54	0x3e746a3e	0.23868653
55	0x3e9174eb	0.28409514
56	0x3cb5c25a	0.0221874
57	0x3ae70fca	0.0017628607
58	0x3ea92158	0.33033252
59	0x3c28f4e8	0.010312296
60	0x3c9f6935	0.019459346
61	0x3e923324	0.28554642
62	0x3e11a372	0.14222506
63	0x3ead0509	0.33792904
64	0x3e71fc96	0.2363151
65	0x3edc2c5b	0.4300259
66	0xbc458e04	-0.012057785
67	0x3ca3fd18	0.020018145
68	0x3e8bb188	0.27283883
69	0x3b3acaae	0.0028502154
70	0x3dcaff19	0.09911937
71	0xbb625bbe	-0.0034539546
72	0x3f1888cc	0.59583735
73	0xbc4ec727	-0.012620724
74	0x3eb2b791	0.34905675
75	0x3ca8f73b	0.020625701
76	0xbcac75a9	-0.021052198
77	0xbc71bc02	-0.014754297
78	0xbc6dfde6	-0.014525866
79	0xbb8b01c8	-0.0042421557
80	0x3e341958	0.17587793
81	0x3b877e51	0.004134931
82	0xbb99d2bc	-0.004694311
83	0x3d318eed	0.043349195
84	0x39e40a73	0.00043495334
85	0xbc242f06	-0.010020977
86	0x3f2c1b74	0.6722939
87	0x3d0db3b1	0.034595195
88	0x3ea4d310	0.32192278
89	0x3c7c410d	0.015396369
90	0x3ed6e498	0.41971278
91	0x3f138c0a	0.5763556
92	0x3ecd59fc	0.40107715
93	0x3f1669bb	0.5875508
94	0xbbbc1826	-0.0057401834
95	0x3c1d0661	0.00958404
96	0xbc24a14e	-0.010048224
97	0xbcc07bb3	-0.023496484
98	0x3f31c9a5	0.6944831
99	0x3f09e332	0.538623
100	0xbdb936f9	-0.09043688
101	0x3d7bdc63	0.061489474
102	0xbca0e092	-0.019638333
103	0x3c057db2	0.008147644
104	0x3e33b38b	0.17548959
105	0xbc9932e8	-0.018701032
106	0x3e639df0	0.22228217
107	0x3a835ebd	0.0010022741
108	0x3bc49446	0.005999121
109	0x3f1df9c5	0.61709243
110	0x3d4eb7b9	0.05046818
111	0xbc325216	-0.010883829
112	0x3b9b6d5a	0.0047432603
113	0xbbdd72ff	-0.0067580934
114	0x3f2fc218	0.6865554
115	0x3e659a51	0.22422148
116	0x3eed948d	0.46402398
117	0xbc5eaa55	-0.013590415
118	0x3b375906	0.0027976646
119	0x3d9fb2c0	0.07797766
120	0xbc6c0c94	-0.014407296
121	0x3eeb68f3	0.45978507
122	0x3e3622a1	0.17786647
123	0x3bf0b0c8	0.0073452927
124	0xbca26afc	-0.019826405
125	0x3c574271	0.013138399
126	0xbe30e04f	-0.17273067
127	0x3b0f0a33	0.0021826148

5.bias f4 [128]
0	0x374273bc	1.1590248e-05
1	0xbcacd21f	-0.021096287
2	0xb7be63c6	-2.2696226e-05
3	0xb6d58b74	-6.364129e-06
4	0xbbf9d944	-0.007624777
5	0xb7c9193a	-2.3972814e-05
6	0xb726c908	-9.941177e-06
7	0x3d833d76	0.06408207
8	0xbaf88557	-0.0018960637
9	0xb792c4c1	-1.7496177e-05
10	0xbe5be0c0	-0.21472454
11	0x3ddf7796	0.10911481
12	0xb6fc3ee1	-7.5175053e-06
13	0x3e510ab5	0.2041424
14	0x35d7efbd	1.6088521e-06
15	0xb61cd492	-2.3369544e-06
16	0x36a302b8	4.858095e-06
17	0xbd0a9826	-0.033836506
18	0xb7ba1a5d	-2.2185204e-05
19	0x3e92d7db	0.2868031
20	0x38673202	5.5121265e-05
21	0xb68264f1	-3.886053e-06
22	0x37b7404f	2.1845246e-05
23	0x3714cb6e	8.868852e-06
24	0x37ac595a	2.0545605e-05
25	0x371a0fa2	9.182755e-06
26	0xb6cb3360	-6.0558523e-06
27	0x3648b09a	2.9905118e-06
28	0xb6ace8b9	-5.153092e-06
29	0xb7b1e9ee	-2.1208976e-05
30	0xb403c270	-1.2271062e-07
31	0xb69c5556	-4.6590967e-06
32	0x36916834	4.3334676e-06
33	0xb7604e4d	-1.3369671e-05
34	0x37ac9ee1	2.0577982e-05
35	0xb93afee1	-0.00017833292
36	0xb6c9ce71	-6.0142997e-06
37	0x36c07469	5.735598e-06
38	0x36a5feea	4.947059e-06
39	0xb77baa45	-1.500041e-05
40	0x370d0946	8.406414e-06
41	0x36d48ed0	6.334718e-06
42	0x36141f56	2.2071958e-06
43	0xb909f96e	-0.00013158258
44	0xbe2db690	-0.16964173
45	0xb6954ae4	-4.4492645e-06
46	0xb60666e7	-2.0027453e-06
47	0xb6a0fbef	-4.7977005e-06
48	0x34189034	1.4208564e-07
49	0xb7aa709a	-2.0318013e-05
50	0xb7034adc	-7.825638e-06
51	0x38f30f21	0.00011589961
52	0x3da08fa3	0.078398965
53	0x37067277	8.013673e-06
54	0xb73d6d82	-1.1290775e-05
55	0x37f81d46	2.9577535e-05
56	0xb5b285d3	-1.3300981e-06
57	0xb5b08dc6	-1.3154283e-06
58	0x379225fc	1.7422244e-05
59	0xb75681ee	-1.2785646e-05
60	0x36ad3392	5.1618053e-06
61	0x36b7a377	5.472855e-06
62	0xb7547e2a	-1.266556e-05
63	0x38a1d541	7.7168e-05
64	0x36ddf324	6.6146185e-06
65	0xb6a539dc	-4.924119e-06
66	0x370d47bf	8.42096e-06
67	0x37c46a1c	2.3414432e-05
68	0xb68c83c6	-4.1876656e-06
69	0x36dc3a11	6.5632707e-06
70	0xb5ad6fd7	-1.2922054e-06
71	0x37b9141c	2.2063083e-05
72	0x36343706	2.6854118e-06
73	0xb5844d60	-9.857285e-07
74	0xb70b7cb5	-8.314081e-06
75	0x36ae42d0	5.193382e-06
76	0x37e9c121	2.7865697e-05
77	0xb987c6e1	-0.00025897383
78	0xb7abbe29	-2.0473339e-05
79	0x3603c904	1.9637528e-06
80	0x37c50fe4	2.349163e-05
81	0xb70025da	-7.6382075e-06
82	0x36bf6211	5.70366e-06
83	0x37356e5e	1.0814138e-05
84	0x38ee21f8	0.000113550515
85	0x36f6cd23	7.3552524e-06
86	0xbdc33405	-0.09531406
87	0xb7b1311a	-2.1122909e-05
88	0x36609022	3.3462497e-06
89	0xb6d0ece4	-6.2264608e-06
90	0x3772026f	1.4424891e-05
91	0xb6d544b9	-6.355895e-06
92	0x37bd0698	2.2533626e-05
93	0xb6beb387	-5.683341e-06
94	0xb72e9929	-1.0406869e-05
95	0xb77b6e60	-1.49864645e-05
96	0xb706c205	-8.032196e-06
97	0xb7ad7e09	-2.0681897e-05
98	0x36f1653f	7.1941463e-06
99	0x371742e2	9.015874e-06
100	0xbb6d1b13	-0.0036179468
101	0x37ed5f38	2.8296941e-05
102	0xb806a7c4	-3.2104334e-05
103	0x374f91ad	1.2372079e-05
104	0x379e63c5	1.8881527e-05
105	0xb776c64c	-1.4708912e-05
106	0x3e641c24	0.2227636
107	0xb7543bb6	-1.2650087e-05
108	0x369ba8c3	4.6390064e-06
109	0x35cd1aa2	1.5281441e-06
110	0xb6869390	-4.0106897e-06
111	0x36a83317	5.012738e-06
112	0xb6d28eac	-6.275097e-06
113	0xb4eee2b8	-4.4495914e-07
114	0xb4316118	-1.6519732e-07
115	0xb709ce9d	-8.213942e-06
116	0xb62fdd9c	-2.6206026e-06
117	0x393764a2	0.00017489729
118	0xb6bebb7f	-5.6842687e-06
119	0x37c73898	2.3749002e-05
120	0xb78a1673	-1.6461336e-05
121	0xb6cb3260	-6.055736e-06
122	0x37616772	1.343513e-05
123	0x360f9f6b	2.1401454e-06
124	0xb75878e1	-1.2902748e-05
125	0xb67be3f2	-3.7534596e-06
126	0x3d974d9d	0.073878504
127	0xb6ab8664	-5.1118423e-06

5.running_mean f4 [128]
0	0x00000004	6e-45
1	0x3fe965ce	1.8234193
2	0x00000004	6e-45
3	0x00000004	6e-45
4	0x41938242	18.438602
5	0x00000004	6e-45
6	0x00000004	6e-45
7	0x4239ef3e	46.483635
8	0x41f52ee6	30.6479
9	0x00000004	6e-45
10	0x00000004	6e-45
11	0x40cac06d	6.3359895
12	0x00000004	6e-45
13	0x3ea3a9f6	0.31965607
14	0x00000004	6e-45
15	0x00000004	6e-45
16	0x00000004	6e-45
17	0x405f13a0	3.4855728
18	0x00000004	6e-45
19	0x00000004	6e-45
20	0x00000004	6e-45
21	0x00000004	6e-45
22	0x00000004	6e-45
23	0x00000004	6e-45
24	0x00000004	6e-45
25	0x00000004	6e-45
26	0x00000004	6e-45
27	0x00000004	6e-45
28	0x00000004	6e-45
29	0x00000004	6e-45
30	0x00000004	6e-45
31	0x00000004	6e-45
32	0x00000004	6e-45
33	0x00000004	6e-45
34	0x00000004	6e-45
35	0x00000004	6e-45
36	0x00000004	6e-45
37	0x00000004	6e-45
38	0x00000004	6e-45
39	0x00000004	6e-45
40	0x00000004	6e-45
41	0x00000004	6e-45
42	0x00000004	6e-45
43	0x00000004	6e-45
44	0x00000004	6e-45
45	0x00000004	6e-45
46	0x00000004	6e-45
47	0x00000004	6e-45
48	0x00000004	6e-45
49	0x00000004	6e-45
50	0x00000004	6e-45
51	0x00000004	6e-45
52	0x00000004	6e-45
53	0x00000004	6e-45
54	0x00000004	6e-45
55	0x00000004	6e-45
56	0x00000004	6e-45
57	0x00000004	6e-45
58	0x00000004	6e-45
59	0x00000004	6e-45
60	0x00000004	6e-45
61	0x00000004	6e-45
62	0x00000004	6e-45
63	0x00000004	6e-45
64	0x00000004	6e-45
65	0x00000004	6e-45
66	0x00000004	6e-45
67	0x00000004	6e-45
68	0x00000004	6e-45
69	0x00000004	6e-45
70	0x00000004	6e-45
71	0x00000004	6e-45
72	0x00000004	6e-45
73	0x00000004	6e-45
74	0x00000004	6e-45
75	0x00000004	6e-45
76	0x00000004	6e-45
77	0x00000004	6e-45
78	0x00000004	6e-45
79	0x00000004	6e-45
80	0x00000004	6e-45
81	0x00000004	6e-45
82	0x00000004	6e-45
83	0x00000004	6e-45
84	0x00000004	6e-45
85	0x00000004	6e-45
86	0x00000004	6e-45
87	0x00000004	6e-45
88	0x00000004	6e-45
89	0x00000004	6e-45
90	0x00000004	6e-45
91	0x00000004	6e-45
92	0x00000004	6e-45
93	0x00000004	6e-45
94	0x00000004	6e-45
95	0x00000004	6e-45
96	0x00000004	6e-45
97	0x00000004	6e-45
98	0x00000004	6e-45
99	0x00000004	6e-45
100	0x3ec3c735	0.3823792
101	0x00000004	6e-45
102	0x00000004	6e-45
103	0x00000004	6e-45
104	0x00000004	6e-45
105	0x00000004	6e-45
106	0x00000004	6e-45
107	0x00000004	6e-45
108	0x00000004	6e-45
109	0x00000004	6e-45
110	0x00000004	6e-45
111	0x00000004	6e-45
112	0x00000004	6e-45
113	0x00000004	6e-45
114	0x00000004	6e-45
115	0x00000004	6e-45
116	0x00000004	6e-45
117	0x00000004	6e-45
118	0x00000004	6e-45
119	0x00000004	6e-45
120	0x00000004	6e-45
121	0x00000004	6e-45
122	0x00000004	6e-45
123	0x00000004	6e-45
124	0x00000004	6e-45
125	0x00000004	6e-45
126	0x404443c9	3.0666373
127	0x00000004	6e-45

5.running_var f4 [128]
0	0x00000004	6e-45
1	0x408f2123	4.472795
2	0x00000004	6e-45
3	0x00000004	6e-45
4	0x3f3bb4a3	0.73322505
5	0x00000004	6e-45
6	0x00000004	6e-45
7	0x41f6cce9	30.850054
8	0x4098dc86	4.7769194
9	0x00000004	6e-45
10	0x00000004	6e-45
11	0x42b3d5f9	89.917915
12	0x00000004	6e-45
13	0x3f60fd1f	0.8788623
14	0x00000004	6e-45
15	0x00000004	6e-45
16	0x00000004	6e-45
17	0x41ed21cb	29.6415
18	0x00000004	6e-45
19	0x00000004	6e-45
20	0x00000004	6e-45
21	0x00000004	6e-45
22	0x00000004	6e-45
23	0x00000004	6e-45
24	0x00000004	6e-45
25	0x00000004	6e-45
26	0x00000004	6e-45
27	0x00000004	6e-45
28	0x00000004	6e-45
29	0x00000004	6e-45
30	0x00000004	6e-45
31	0x00000004	6e-45
32	0x00000004	6e-45
33	0x00000004	6e-45
34	0x00000004	6e-45
35	0x00000004	6e-45
36	0x00000004	6e-45
37	0x00000004	6e-45
38	0x00000004	6e-45
39	0x00000004	6e-45
40	0x00000004	6e-45
41	0x00000004	6e-45
42	0x00000004	6e-45
43	0x00000004	6e-45
44	0x00000004	6e-45
45	0x00000004	6e-45
46	0x00000004	6e-45
47	0x00000004	6e-45
48	0x00000004	6e-45
49	0x00000004	6e-45
50	0x00000004	6e-45
51	0x00000004	6e-45
52	0x00000004	6e-45
53	0x00000004	6e-45
54	0x00000004	6e-45
55	0x00000004	6e-45
56	0x00000004	6e-45
57	0x00000004	6e-45
58	0x00000004	6e-45
59	0x00000004	6e-45
60	0x00000004	6e-45
61	0x00000004	6e-45
62	0x00000004	6e-45
63	0x00000004	6e-45
64	0x00000004	6e-45
65	0x00000004	6e-45
66	0x00000004	6e-45
67	0x00000004	6e-45
68	0x00000004	6e-45
69	0x00000004	6e-45
70	0x00000004	6e-45
71	0x00000004	6e-45
72	0x00000004	6e-45
73	0x00000004	6e-45
74	0x00000004	6e-45
75	0x00000004	6e-45
76	0x00000004	6e-45
77	0x00000004	6e-45
78	0x00000004	6e-45
79	0x00000004	6e-45
80	0x00000004	6e-45
81	0x00000004	6e-45
82	0x00000004	6e-45
83	0x00000004	6e-45
84	0x00000004	6e-45
85	0x00000004	6e-45
86	0x00000004	6e-45
87	0x00000004	6e-45
88	0x00000004	6e-45
89	0x00000004	6e-45
90	0x00000004	6e-45
91	0x00000004	6e-45
92	0x00000004	6e-45
93	0x00000004	6e-45
94	0x00000004	6e-45
95	0x00000004	6e-45
96	0x00000004	6e-45
97	0x00000004	6e-45
98	0x00000004	6e-45
99	0x00000004	6e-45
100	0x3ebcdf15	0.36888948
101	0x00000004	6e-45
102	0x00000004	6e-45
103	0x00000004	6e-45
104	0x00000004	6e-45
105	0x00000004	6e-45
106	0x00000004	6e-45
107	0x00000004	6e-45
108	0x00000004	6e-45
109	0x00000004	6e-45
110	0x00000004	6e-45
111	0x00000004	6e-45
112	0x00000004	6e-45
113	0x00000004	6e-45
114	0x00000004	6e-45
115	0x00000004	6e-45
116	0x00000004	6e-45
117	0x00000004	6e-45
118	0x00000004	6e-45
119	0x00000004	6e-45
120	0x00000004	6e-45
121	0x00000004	6e-45
122	0x00000004	6e-45
123	0x00000004	6e-45
124	0x00000004	6e-45
125	0x00000004	6e-45
126	0x4173e643	15.243716
127	0x00000004	6e-45
